checkpoint.pth (torch, 22640 bytes, 6 tensors)

fc1.weight f4 [64, 8]
0	0x3ff24291	1.8926564
1	0x3f444f20	0.76683235
2	0xbde3642b	-0.1110309
3	0x3edaace9	0.42710045
4	0xbf686e9e	-0.9079379
5	0xbd04e134	-0.032441333
6	0xbeb9f24c	-0.3631767
7	0x3e625986	0.22104463
8	0x3fc5fc37	1.5467595
9	0xbea72897	-0.32648155
10	0x3ebdf65a	0.37102014
11	0xbf4d4226	-0.8017906
12	0xbef054c0	-0.4693966
13	0xbe9cc84a	-0.30621558
14	0x3e57d5f1	0.21077706
15	0x3e917ae7	0.2841408
16	0x400c96a8	2.1966953
17	0x3ea648c0	0.3247738
18	0x3f2b1f95	0.66845065
19	0xbe705af7	-0.234722
20	0x3eb8bb1f	0.36080262
21	0x3e388ae1	0.18021728
22	0xbfeb8ff1	-1.8403302
23	0xbcbb979c	-0.022899441
24	0x3f527a38	0.8221774
25	0xbf1fd90d	-0.6244057
26	0xbf8e2aaf	-1.1106776
27	0x3eafdf68	0.34350133
28	0x3f28a667	0.6587891
29	0xbf359056	-0.70923364
30	0x3ddf7a91	0.109120496
31	0xbe696e55	-0.22795995
32	0x401a397e	2.409759
33	0xbf31a49f	-0.69391817
34	0x3d694c57	0.05695757
35	0xbe727bd5	-0.2368005
36	0xbecb077f	-0.39654157
37	0x3d6d8b11	0.057993952
38	0x3d1a5921	0.037682656
39	0xbf96b4b8	-1.1773901
40	0xbefe9098	-0.4971969
41	0xbd8c63bf	-0.068549626
42	0x3ec77af1	0.38960984
43	0x3fdb4636	1.7130802
44	0xbee95bf7	-0.45577976
45	0xbed855e1	-0.4225302
46	0x3e876119	0.26441267
47	0x3d31675e	0.04331147
48	0x3cb15d1b	0.021650841
49	0xbefdedf1	-0.49595597
50	0xbef9b84c	-0.4877342
51	0xc02ddda6	-2.7166533
52	0x3dfa4242	0.12219669
53	0xbe02ae22	-0.12761739
54	0x3ddddb41	0.10832835
55	0x3ea6e14c	0.32593763
56	0x3eebd3a2	0.460599
57	0xbf29f5e6	-0.66390836
58	0x3f0a73c6	0.54082906
59	0xbf6415cf	-0.8909578
60	0xc03135c5	-2.7689068
61	0xbebb63f3	-0.36599693
62	0x3aef9d80	0.0018281192
63	0x3d525f0b	0.05136017
64	0x3f22e5bf	0.63631815
65	0xbdc35202	-0.09537126
66	0x3eac0a93	0.33601817
67	0xbed38dab	-0.41319022
68	0xbf5acb4e	-0.8546647
69	0xbec87ee7	-0.3915932
70	0x3f2af0c5	0.66773635
71	0x3f265cf6	0.649856
72	0x3fbd18c2	1.477318
73	0xbf22af69	-0.63548905
74	0xbebb3729	-0.3656552
75	0xbfdaebf8	-1.7103262
76	0xbf45fc5a	-0.7733818
77	0xbdca7b76	-0.098868296
78	0xbc76e2ee	-0.015068753
79	0x3e2cbdcc	0.16869277
80	0xc0086509	-2.1311667
81	0xbd83fdad	-0.06444869
82	0xbf353572	-0.70784676
83	0xbede7e1b	-0.43455586
84	0x3f28eafa	0.65983546
85	0x3d433747	0.04766014
86	0x3b58eb89	0.0033099374
87	0x3da1f25b	0.07907554
88	0xbf5bd116	-0.85865915
89	0xbf8d33a6	-1.1031387
90	0x3f19d476	0.60089815
91	0xbd963a28	-0.07335311
92	0xbf5c9af4	-0.8617394
93	0x3c83f44e	0.016107704
94	0x3ed3095b	0.41218075
95	0xbfb0ff65	-1.382794
96	0x3e1485e9	0.14504208
97	0x3f1fccf9	0.6242214
98	0xbf9cbe9d	-1.224567
99	0xbf6956ac	-0.91147876
100	0xbf53bcd0	-0.8270998
101	0x3db5050a	0.08838852
102	0x3eeaef0a	0.45885497
103	0xbe74b040	-0.23895359
104	0xbf546bf0	-0.829772
105	0xbf39d267	-0.72586673
106	0xbfa2e45b	-1.2725939
107	0xbf926328	-1.143651
108	0xbd84ee2a	-0.06490739
109	0x3e614865	0.22000273
110	0x3f2148db	0.63001794
111	0x3e1d0cc2	0.15336898
112	0x3eca2285	0.3947946
113	0x3e4d7a30	0.20066142
114	0xbed4c7bf	-0.41558644
115	0xbfa7842b	-1.308721
116	0xbef363bd	-0.47537032
117	0xbf485e44	-0.7826884
118	0xbc0ebe9b	-0.008712436
119	0xbf064b9b	-0.52459115
120	0x3f70e81f	0.9410419
121	0xbe2ac5d7	-0.16677032
122	0xbf2c3bde	-0.6727885
123	0xbf364e65	-0.7121337
124	0x3f3b4fe7	0.73168796
125	0x3cc289ec	0.023747407
126	0xbed303cf	-0.41213843
127	0xbf961109	-1.1723949
128	0x3fb4600c	1.4091811
129	0xbe94a41a	-0.2903145
130	0xbed24958	-0.41071582
131	0x3f72d1cd	0.9485138
132	0x3dd49327	0.103796296
133	0xbc953b1b	-0.01821666
134	0x3cac3a73	0.021023965
135	0x3f771a39	0.9652439
136	0xbfd98621	-1.6994058
137	0xc0808297	-4.015941
138	0xbd87f16c	-0.066378444
139	0xbf3028fe	-0.6881255
140	0xbe9ef4c1	-0.31046107
141	0xbc0d7d86	-0.008635884
142	0x3ec7d5ff	0.39030454
143	0x3e36de03	0.17858128
144	0xbedaea86	-0.42757052
145	0xbfc775f6	-1.5582874
146	0x3ea0c88f	0.31403014
147	0x3fd4aca7	1.6615189
148	0xbeb4a21d	-0.35279933
149	0xbe74b690	-0.23897767
150	0x3ddfc8d3	0.10926976
151	0xbe8dbf9a	-0.27685243
152	0x3e1c715b	0.15277617
153	0x3f954e9f	1.1664618
154	0x3df15434	0.117836386
155	0x3ea64603	0.3247529
156	0x3f771472	0.9651557
157	0xbf80fe44	-1.0077596
158	0x3da7b732	0.081892386
159	0xbebaef75	-0.36510816
160	0x3d4bf619	0.049795244
161	0xc0691451	-3.641865
162	0x3f48f95f	0.7850551
163	0xbea4e405	-0.32205215
164	0x3f17982f	0.5921659
165	0xbe9edbb8	-0.31027007
166	0x3e20c350	0.15699506
167	0xbe253018	-0.16131628
168	0x3f94a1b2	1.1611845
169	0x3fa80f2a	1.3129628
170	0xc04d796e	-3.2105365
171	0x3e4edf3f	0.20202349
172	0x3f4f4bed	0.8097523
173	0x3f4a5f7e	0.7905196
174	0x3e5d4a4f	0.21610378
175	0x3e422364	0.18958813
176	0x3d6e75f7	0.05821797
177	0x3f7895a3	0.9710333
178	0x3d8a3ac3	0.06749489
179	0xc046f508	-3.1087055
180	0x3e96c366	0.29445952
181	0x3f0fb0d0	0.5612917
182	0x3e4ab540	0.19795704
183	0xbd7b7cd1	-0.06139833
184	0x3eb70ca4	0.35751832
185	0x3eec5bc5	0.46163765
186	0x3f73ef74	0.9528725
187	0xbe802e17	-0.25035164
188	0xbf81cdb6	-1.0140903
189	0x3f0041cd	0.50100404
190	0x3dae875a	0.0852191
191	0xbd2e4155	-0.042542774
192	0x3ea6d751	0.32586148
193	0x3e7127dd	0.23550363
194	0xbf430156	-0.76173913
195	0x3f14f03b	0.5817906
196	0xbf16a004	-0.58837914
197	0x3ec5ea66	0.38655394
198	0x3dfd75cc	0.123759836
199	0xbf2750ee	-0.65357864
200	0x3f19ce94	0.6008084
201	0x3f01adb0	0.5065565
202	0xbe89cbac	-0.26913202
203	0x3e8d1f35	0.27562872
204	0x3f321b00	0.6957245
205	0xbf05632a	-0.5210444
206	0x3e988a29	0.29792908
207	0xbfc87370	-1.5660229
208	0x3e996bec	0.2996515
209	0xbed2a349	-0.41140202
210	0x3f77932e	0.96708953
211	0xbee6a79a	-0.45049745
212	0xbfa8f441	-1.319954
213	0xbf47eb0d	-0.78093034
214	0xbf86fc94	-1.0545831
215	0x3dd7ef68	0.1054371
216	0x3d7d7e90	0.061888278
217	0xc0110b5b	-2.266318
218	0x3d04932f	0.032366928
219	0xc0198987	-2.399019
220	0xbfbf6012	-1.4951193
221	0xbdaa30ed	-0.08310113
222	0xbf3cafe1	-0.7370587
223	0xbe8ba898	-0.27277064
224	0xbf2669ff	-0.6500549
225	0x3e0e341e	0.13887069
226	0x3e779676	0.2417849
227	0x3dafa02f	0.085754745
228	0xbd177518	-0.036976904
229	0xbfab9776	-1.3405597
230	0xc01883e5	-2.3830502
231	0x3f4bcb6d	0.7960728
232	0xbd045c13	-0.03231437
233	0x3da21df9	0.07915873
234	0x3ffa56d7	1.9557751
235	0x3ec8a058	0.39184833
236	0x3f330ef7	0.6994471
237	0xbe40ca79	-0.18827237
238	0xbf09715a	-0.53688586
239	0xbe8f2d2b	-0.27964148
240	0x3f373001	0.71557623
241	0xbca2f1db	-0.019890716
242	0x3e0aae02	0.13542941
243	0xbebbcd85	-0.36680236
244	0xbf8ba9ef	-1.0911235
245	0xbfb8700d	-1.4409195
246	0xbf855520	-1.0416603
247	0xbe1dd776	-0.15414223
248	0xbfc8ffcb	-1.5703062
249	0x3a59d464	0.0008309542
250	0xbf955e70	-1.1669445
251	0x40282def	2.6278036
252	0xbfdce6ed	-1.7257973
253	0xbf83b7fb	-1.0290521
254	0xbe830504	-0.25589764
255	0xbe91f96f	-0.28510615

fc1.bias f4 [64]
0	0x3f3a12cc	0.7268493
1	0xbd4a676e	-0.049415044
2	0xbe2bf940	-0.167943
3	0xbf62a910	-0.8853922
4	0x3f84a261	1.0362054
5	0xbf0bb327	-0.5457024
6	0x3f614f47	0.8801159
7	0xbe4ec3e9	-0.20191921
8	0xbe3ccef8	-0.18438327
9	0xbe2e62ee	-0.17029926
10	0xbd7f1e56	-0.06228479
11	0x3f4ec2ed	0.80766183
12	0xbe8daecb	-0.2767242
13	0xbe268d6b	-0.16264884
14	0xbd2b52bf	-0.04182696
15	0x3ef50b1d	0.4786004
16	0xbdce1c7a	-0.10064025
17	0xbd09f83d	-0.033684004
18	0x3f9a14a2	1.2037547
19	0xbf8cbd54	-1.0995278
20	0xbf851e42	-1.0399859
21	0x3f8a452a	1.0802357
22	0x3ecb7c91	0.39743474
23	0x3e8a21a2	0.26978785
24	0xbf78d84f	-0.9720506
25	0xbe8274df	-0.2547979
26	0xbec38583	-0.381878
27	0x3eb1bfc1	0.3471661
28	0xbf208992	-0.62709916
29	0x3e299bac	0.1656329
30	0xbf02833d	-0.50981504
31	0xbd83c480	-0.06433964
32	0x3f7b0b17	0.98063797
33	0x3ef3a82b	0.4758924
34	0x3eaaf59e	0.33390516
35	0xbe841429	-0.2579663
36	0x3f358cd8	0.70918036
37	0xbf2b6966	-0.669577
38	0x3c0a0583	0.008424166
39	0xbda0ba89	-0.07848079
40	0x3e669191	0.22516467
41	0x3f4f8ecf	0.81077284
42	0x3e5ca6b6	0.2154797
43	0xbea9af4d	-0.33141556
44	0xbdbf6ae6	-0.09346561
45	0x3e917f0c	0.28417242
46	0x3c739ed8	0.014869414
47	0x3f6143dd	0.87994176
48	0x3f1e5c96	0.61860025
49	0x3f5e9c6b	0.86957425
50	0xbf2d4879	-0.6768871
51	0xbec6cab4	-0.38826525
52	0xbe8e03c7	-0.27737257
53	0xbbeb1bb4	-0.0071749333
54	0x3f01e488	0.50739336
55	0xbe8ce90e	-0.27521557
56	0xbec483e7	-0.38381884
57	0xbea79beb	-0.32736143
58	0xbe18480d	-0.14871235
59	0xbf4430b0	-0.7663679
60	0xbf03cefe	-0.5148772
61	0x3e14719f	0.14496468
62	0x3f77ba20	0.9676838
63	0x3ee35d0f	0.44406936

fc2.weight f4 [64, 64]
0	0x3d0be43d	0.03415321
1	0xbd20087b	-0.039070588
2	0xbfb05183	-1.3774875
3	0xbe3e1961	-0.18564369
4	0xbeaab003	-0.3333741
5	0x3f738543	0.95125216
6	0xbecae4bf	-0.39627644
7	0xbebf5376	-0.37368363
8	0x3e628ce5	0.2212406
9	0xbfa931bb	-1.3218302
10	0xbf533185	-0.82497436
11	0xbe878959	-0.26471975
12	0x3f765fd3	0.96239966
13	0x3f056d73	0.5212013
14	0x3f968042	1.1757891
15	0xbe083dda	-0.13304844
16	0xbe8ceb4f	-0.27523276
17	0xbeb4f414	-0.35342467
18	0xbe57f0f3	-0.21088009
19	0x3f0d1b1f	0.5511951
20	0xbff1ebf3	-1.8900131
21	0xbf2f91fd	-0.68582135
22	0x3f224c84	0.63398004
23	0x3ee2f3cc	0.44326627
24	0x3f86f894	1.054461
25	0x3f8ef50c	1.1168532
26	0xbff36bf4	-1.901732
27	0xbf6179c1	-0.88076407
28	0xc04954c0	-3.1457977
29	0x3e9cf5dc	0.30656326
30	0xbf937861	-1.1521112
31	0xbf3856bc	-0.72007346
32	0x3f0f588c	0.55994487
33	0x3f6b3bb3	0.9188797
34	0x3f118b6a	0.56853354
35	0xbee37478	-0.44424796
36	0xbf1bdfc3	-0.6088831
37	0xbf07c5ca	-0.5303618
38	0xbf54d4f5	-0.83137447
39	0x3fbadc23	1.459843
40	0xbfc6a297	-1.5518368
41	0xbe9ce5f6	-0.30644196
42	0xbf75bee0	-0.9599438
43	0xbd9a3ce9	-0.07531149
44	0x3f820700	1.0158386
45	0xbf2c53c7	-0.67315334
46	0xbfb52b88	-1.415391
47	0x3e8aec9e	0.2713365
48	0x3f2c7541	0.67366415
49	0xbeb77e17	-0.35838386
50	0xc01ccd39	-2.4500258
51	0xbf1c8511	-0.61140543
52	0xbf1d7723	-0.61509913
53	0xbf03049e	-0.5117892
54	0xbfe05f60	-1.7529106
55	0xbf85ff32	-1.0468504
56	0x3e22030a	0.15821472
57	0xbf9487d3	-1.160395
58	0xbf93c486	-1.1544349
59	0x3e852e81	0.26012042
60	0x3f859bee	1.0438211
61	0xbfcd2d65	-1.6029478
62	0xbe769a07	-0.24082194
63	0x3e21e8ca	0.15811458
64	0xbf0af3a6	-0.5427803
65	0xc013add0	-2.3074837
66	0x400858f4	2.1304293
67	0x3e8fd0c7	0.28088972
68	0xc0737642	-3.804093
69	0x3f921b65	1.141461
70	0x3decf013	0.11569228
71	0xbdfdda9a	-0.123952106
72	0xc03d741b	-2.9602115
73	0x3ef570cc	0.4793762
74	0x3ef5c542	0.48002058
75	0xbfbf9cf6	-1.4969776
76	0xbf69259f	-0.9107303
77	0xbf8b9a21	-1.0906411
78	0xbf57091c	-0.83998275
79	0x3f4c9d60	0.79927635
80	0x3ea8aa20	0.32942295
81	0xbf1e0b10	-0.6173563
82	0xc044d6ad	-3.0756028
83	0xc0564084	-3.3476877
84	0xbec1bf5b	-0.37841305
85	0x3eff7abf	0.49898335
86	0x3ebb6446	0.3659994
87	0xbcfa0f67	-0.030524923
88	0xbf1fe70a	-0.6246191
89	0xbe35e278	-0.17762172
90	0xbe876f7a	-0.26452237
91	0xbf4cf70a	-0.8006445
92	0xbf8e38f2	-1.1111128
93	0x3f3a92f4	0.7288048
94	0x3ed3d98e	0.4137692
95	0x3debfcad	0.115228035
96	0x3e9b08c4	0.30280125
97	0xbe22a579	-0.15883435
98	0xbf8c2290	-1.0948048
99	0xbf4e281b	-0.80529946
100	0xbe37469c	-0.17898029
101	0x3fd1d559	1.6393234
102	0xbfd29b47	-1.6453637
103	0xc02d9f8d	-2.7128632
104	0xbfd75478	-1.6822653
105	0x3f8b3cfc	1.0877986
106	0x3ee95171	0.45569947
107	0xbf101350	-0.5627947
108	0xc003015c	-2.046958
109	0x3f66c745	0.9014781
110	0xc03056b4	-2.755292
111	0xbd85a6d5	-0.06525961
112	0xbf23e7b8	-0.6402545
113	0xbe31f432	-0.1737831
114	0x3f82f77c	1.0231776
115	0xbe63886f	-0.22220014
116	0x3f77c554	0.96785474
117	0x3ec81a7e	0.39082712
118	0x3f450689	0.76963097
119	0xbea47f37	-0.32128307
120	0xbe9073e8	-0.2821343
121	0xbfedba4c	-1.8572478
122	0xbdcbe83e	-0.09956406
123	0xbef10246	-0.47072047
124	0x3f0e0434	0.55475163
125	0xbf5c72df	-0.8611278
126	0x3d4b99c6	0.049707197
127	0x3f9b791c	1.2146335
128	0xbea318a7	-0.31854746
129	0x3ec67dbd	0.38767806
130	0xbf861763	-1.0475887
131	0x3ef29e24	0.47386277
132	0xbda6f1e8	-0.08151609
133	0x3fa4769a	1.2848694
134	0xbec4493e	-0.3833713
135	0x406d55c8	3.7083607
136	0x3ddd4732	0.10804595
137	0x3f268751	0.65050226
138	0x3f4b63b7	0.7944903
139	0xbf946960	-1.1594658
140	0xbea8a321	-0.32936957
141	0x3e85a3c6	0.26101512
142	0xbf27052f	-0.65242285
143	0xbeb1feb9	-0.3476465
144	0xbead1896	-0.3380782
145	0x3dfc8475	0.12329952
146	0xbe865701	-0.26238254
147	0x3f64b67d	0.89340955
148	0x3fbfa774	1.4972978
149	0xbe0c4bed	-0.13700838
150	0xbec368d0	-0.38165903
151	0xbf750f82	-0.9572679
152	0x3fc154c9	1.5103999
153	0xc01697fa	-2.353026
154	0xbf1770af	-0.59156317
155	0x3ea298ca	0.31757194
156	0xbd87fa10	-0.066394925
157	0xbf82f7d0	-1.0231876
158	0xbf9db040	-1.2319412
159	0x3fd09650	1.6295872
160	0xbf088320	-0.5332508
161	0xbf01cf58	-0.50707006
162	0xbec408ac	-0.38287866
163	0xbe123da4	-0.14281327
164	0xbf7d6bc0	-0.9899254
165	0x3f408ceb	0.75215024
166	0x3f16f0b2	0.5896102
167	0x3ea91a41	0.33027843
168	0xbeea232a	-0.45729953
169	0xbf2b2981	-0.66860205
170	0xbf908b0c	-1.1292434
171	0xbf0a2192	-0.53957474
172	0xbf88925a	-1.0669663
173	0x401bbd63	2.4334342
174	0xbf5452d3	-0.8293888
175	0xbefb036a	-0.49026042
176	0xbf4fe25f	-0.8120479
177	0xbe1f5f63	-0.15563731
178	0xbfd03651	-1.6266576
179	0xbf185346	-0.59502065
180	0x3f8f1f7d	1.1181484
181	0x3da483ca	0.08032949
182	0x3fb2bfc1	1.3964769
183	0xc01f20ee	-2.4863849
184	0x3dd417aa	0.10356076
185	0xbf47470b	-0.7784278
186	0xbe145d47	-0.14488707
187	0x3fc62895	1.5481135
188	0xbed1a870	-0.4094882
189	0x3f199f52	0.6000873
190	0xbe80a976	-0.25129288
191	0xbf05dcd9	-0.5229011
192	0xbf406c44	-0.751652
193	0x3f814b50	1.0101109
194	0x3e67fec2	0.22655776
195	0x3fc617d2	1.5476019
196	0xbf009468	-0.5022645
197	0x3f3224eb	0.6958758
198	0xbd8af0f5	-0.0678424
199	0x3fa87043	1.315926
200	0x3e96076e	0.29302543
201	0x3f1668a2	0.58753407
202	0x402941cf	2.6446416
203	0xbdf1f048	-0.11813408
204	0xbed536f1	-0.4164348
205	0x3e43ede3	0.19133715
206	0x3ecf5592	0.40494972
207	0x3efba309	0.49147823
208	0x3e74c9c7	0.23905097
209	0x3f3a0ce8	0.72675943
210	0x3e8147db	0.25250134
211	0xbf504d5a	-0.8136803
212	0x3fad04cc	1.3517089
213	0x3d50c588	0.05096963
214	0xbe0566cb	-0.13027494
215	0x3f452836	0.7701448
216	0x3f33d640	0.70248795
217	0xbe56ffd3	-0.20996027
218	0x3dc7355d	0.09726975
219	0x3f2b7130	0.66969585
220	0x3ef9a619	0.48759535
221	0xbc83e180	-0.016098738
222	0x3e2f3892	0.17111424
223	0x3eb21937	0.34784862
224	0xbe5ba3eb	-0.21449248
225	0xbd8eda24	-0.06975201
226	0xbe874ef6	-0.2642743
227	0x3f118b8b	0.5685355
228	0x3dbc6ee4	0.09200838
229	0x3f5a9c9e	0.8539523
230	0x3f14737a	0.57988703
231	0xbd8afef5	-0.067869104
232	0x3f4d5391	0.8020564
233	0x3e898f32	0.26867062
234	0x3ef1e0b3	0.47241744
235	0x3e7abb76	0.24485573
236	0xbf09e4f8	-0.53865004
237	0x3f31f4d7	0.6951422
238	0x3e561ea6	0.20910129
239	0x3e9c3d00	0.3051529
240	0xbea5ad46	-0.3235876
241	0x3e305b94	0.17222434
242	0x3fc0a6a1	1.5050851
243	0x3f3a3297	0.72733444
244	0x3fb4ee60	1.4135246
245	0x3f29511d	0.66139394
246	0xbe0adf31	-0.13561703
247	0xbf7b429f	-0.9814853
248	0x3eb8fd23	0.36130628
249	0x3e7524b2	0.2393978
250	0x3dfedfa6	0.12445001
251	0x3e1ae66d	0.15126963
252	0xbefc304e	-0.49255604
253	0x3fac816b	1.3476995
254	0x3e936948	0.2879126
255	0xbe8cd65f	-0.27507302

fc2.bias f4 [64]
0	0xbdca2425	-0.09870175
1	0xbea116d0	-0.31462717
2	0xbefee475	-0.49783674
3	0x3e6a1c62	0.2286239
4	0x3e8fd95b	0.28095517
5	0x3ef3e954	0.47638953
6	0xbf55dac3	-0.8353693
7	0x3ecffb46	0.40621394
8	0xbdb4e83b	-0.08833357
9	0xbe8479ae	-0.25874084
10	0xbe4cfb32	-0.20017698
11	0x3ca7caf8	0.020482525
12	0x3c9d560e	0.019206073
13	0x3f5eb06a	0.86987936
14	0x3e0d5726	0.13802776
15	0x3f087060	0.5329647
16	0xbe1165ee	-0.1419904
17	0xbbc1c113	-0.005912909
18	0xbea9302d	-0.33044568
19	0xbf10d3b6	-0.56573045
20	0x3e0a5843	0.13510232
21	0x3db7ad21	0.089685686
22	0xbed9e94f	-0.42560813
23	0x3cfbc115	0.030731717
24	0x3e863e2a	0.26219302
25	0x3e15cddd	0.14629312
26	0x3df08526	0.11744146
27	0x3e417c74	0.18895131
28	0x3f89870d	1.0744339
29	0x3e31b8b5	0.17355616
30	0x3e36ea0a	0.17862716
31	0x3dd5f67f	0.10447406
32	0x3f5041b1	0.8135024
33	0x3d06f9e7	0.03295317
34	0x3f458593	0.77156943
35	0xbd7f900b	-0.06239323
36	0x3f8a333e	1.0796888
37	0x3ed66442	0.41873366
38	0x3de1411c	0.10998747
39	0x3df1fd75	0.11815921
40	0xbd3e5849	-0.046470914
41	0xbdf87b3a	-0.121328786
42	0xbeae07f0	-0.3399043
43	0xbeb32fd4	-0.34997427
44	0xbe3c0b51	-0.18363692
45	0x3d50c3d0	0.05096799
46	0xbdcb3425	-0.09922055
47	0x3fa7b6d4	1.310267
48	0x3df2fe01	0.11864854
49	0x3e221072	0.15826586
50	0xbde7c579	-0.11316962
51	0x3e9647a1	0.29351524
52	0x3dff1683	0.12455466
53	0xbb1e3ff8	-0.0024147015
54	0x3f114a82	0.56754315
55	0xbee4dd43	-0.4470006
56	0x3e27ff50	0.16405988
57	0x3eb55576	0.35416764
58	0xbeb29832	-0.3488174
59	0x3ed315a0	0.41227436
60	0x3ef14fdf	0.4713125
61	0x3e4f8525	0.20265634
62	0xbe17cd6d	-0.14824457
63	0x3f42cdb8	0.7609515

fc3.weight f4 [4, 64]
0	0x40536364	3.3029413
1	0xc0429e1a	-3.0408998
2	0xbffa3d68	-1.954999
3	0xbf997de8	-1.1991549
4	0x3ea92979	0.33039454
5	0x3ee10861	0.43951705
6	0xbba491bc	-0.0050222557
7	0x40449255	3.0714314
8	0xc00a1e02	-2.1580815
9	0xbf5a3252	-0.8523303
10	0xbfad992b	-1.3562368
11	0xbf15ac2c	-0.5846584
12	0xbf8afcef	-1.0858439
13	0x3fdfc25d	1.748119
14	0xbe3cc52d	-0.18434592
15	0x407f5c9e	3.990028
16	0x3ebfc47a	0.37454587
17	0xbfa05288	-1.2525187
18	0xc009b06f	-2.1513937
19	0x3c072588	0.008248694
20	0xbf3ee096	-0.7456144
21	0x40ae5a89	5.4485517
22	0xbdd97e71	-0.1061982
23	0xbe349cdf	-0.17637967
24	0xbe9072ef	-0.28212687
25	0xbf1257db	-0.57165307
26	0xbf97a17e	-1.1846159
27	0xbf9785cf	-1.183771
28	0x3fd015d2	1.6256659
29	0xbfaa252d	-1.3292595
30	0xbf619e78	-0.8813243
31	0xbf9b4912	-1.2131674
32	0x3faa9831	1.3327695
33	0x3fc30879	1.5236961
34	0x4013197b	2.2984302
35	0xbfe802f1	-1.8125898
36	0xc01b220a	-2.4239526
37	0x3d2fa151	0.042878453
38	0xbe524c7a	-0.20536986
39	0xbf70f854	-0.9412892
40	0x40257af8	2.5856304
41	0xbf4253de	-0.7590922
42	0x403136fc	2.768981
43	0xbfd41021	-1.6567422
44	0x402bfe6b	2.6874034
45	0x3de7fb92	0.1132728
46	0xbf8bef21	-1.0932351
47	0x3fdd6682	1.7296908
48	0xbf1d8439	-0.6152988
49	0xbfcbc8a9	-1.5920612
50	0xbdd63c42	-0.10460712
51	0x405f0433	3.4846313
52	0x3fbeb182	1.4897921
53	0xbf873393	-1.0562614
54	0x3ed63dee	0.41844124
55	0xbfaeeca6	-1.3665969
56	0xbebb604e	-0.36596912
57	0xc00947e8	-2.1450138
58	0xbfb30e53	-1.3988746
59	0x3f280530	0.65632915
60	0x3e4a7448	0.1977092
61	0xbfc2a6a3	-1.5207103
62	0xbde7f04a	-0.113251284
63	0x3faa3477	1.3297261
64	0x40793095	3.8935902
65	0xc0371ef1	-2.8612635
66	0x3e1d5647	0.15364943
67	0xbf38e862	-0.7222959
68	0x3dc89a3f	0.09795045
69	0x3f23b660	0.6395016
70	0xbfc459ce	-1.5339906
71	0x40122986	2.2837844
72	0xbfd96b02	-1.6985781
73	0xc01c9472	-2.4465604
74	0xbf5209ab	-0.82046
75	0xbf03995b	-0.51405877
76	0xbf110124	-0.56642365
77	0x3fd33859	1.6501571
78	0xbef38f54	-0.47570288
79	0x406a646f	3.66238
80	0xbedab257	-0.42714188
81	0xbf25c2a9	-0.6475015
82	0xbff44d01	-1.9086
83	0xbfcce8c4	-1.6008534
84	0xbf642def	-0.8913259
85	0x4086aeeb	4.2088523
86	0x3f5451a9	0.82937104
87	0xc00c91ac	-2.196391
88	0xbf61abb8	-0.88152647
89	0xbe2361cf	-0.1595528
90	0xbf97c9cc	-1.1858459
91	0xbfa3a739	-1.2785407
92	0x3fc27403	1.5191654
93	0xbf8797d9	-1.0593215
94	0x3e099d77	0.13438974
95	0xbedef7f6	-0.43548554
96	0x3f9e6946	1.2375877
97	0x3f5902f2	0.8477012
98	0x40065b00	2.0993042
99	0xbf3c2dab	-0.73507184
100	0xc00131d5	-2.0186665
101	0xbfdb391f	-1.7126807
102	0xbf99922f	-1.1997737
103	0xbf8a0c75	-1.0785052
104	0x402f2872	2.7368436
105	0xbf9620a8	-1.1728716
106	0x400f198c	2.2359343
107	0xc03469da	-2.8189607
108	0x4033fe5c	2.8123999
109	0x3ca107c6	0.019657027
110	0xbf4efd28	-0.80855036
111	0x40076fbe	2.1161952
112	0xbf9af072	-1.2104628
113	0xbf28d3cd	-0.6594818
114	0xbf38bdd3	-0.7216465
115	0x4083e470	4.1216354
116	0x40779b51	3.8688548
117	0xbf16dd00	-0.5893097
118	0x3f405aa4	0.75138307
119	0xbf60dc2f	-0.87835974
120	0xbf4d880b	-0.8028571
121	0xc00b63de	-2.1779704
122	0xbff2132d	-1.8912102
123	0x3f22732f	0.63457006
124	0xbf4e8303	-0.8066866
125	0xbf075732	-0.52867424
126	0x3c9135bf	0.017725823
127	0x3fdf1ac0	1.7430038
128	0x405402b9	3.3126662
129	0xc0406fa0	-3.006813
130	0x3f432997	0.76235336
131	0xbf508295	-0.8144925
132	0xc0011a96	-2.0172477
133	0x3f948725	1.1603743
134	0xc0023437	-2.034437
135	0x402b10cb	2.6729
136	0xbfb68454	-1.4259133
137	0xbf97c36a	-1.1856511
138	0xbe3ab6a6	-0.18233737
139	0xbfd2f8b9	-1.6482154
140	0x3ee95072	0.45569187
141	0x400b493d	2.176345
142	0xc0230af9	-2.5475447
143	0x406e9aef	3.7282064
144	0xbd9d09fd	-0.07667921
145	0xbf9fcb25	-1.248387
146	0xc001cdc5	-2.0281842
147	0xbfbcd6fa	-1.4753106
148	0xbfe420f9	-1.7822562
149	0x3f053539	0.52034336
150	0x3fc5de1e	1.545841
151	0xbdcd4a52	-0.10023941
152	0xbe2a7590	-0.16646409
153	0xc0060eb9	-2.0946486
154	0x3ee6d517	0.4508445
155	0xbe300572	-0.17189577
156	0x3fcb307b	1.587417
157	0xbf7e734f	-0.99394697
158	0xbec310fb	-0.38098893
159	0xbf50c639	-0.81552464
160	0x3fbfa60e	1.4972551
161	0x3efbb466	0.4916107
162	0x3fb3f4ca	1.4059079
163	0xbf203ede	-0.6259593
164	0xc0389955	-2.8843586
165	0xc0289294	-2.6339464
166	0xbf92d079	-1.1469871
167	0xbf338ce7	-0.70136875
168	0x400bbb63	2.1833122
169	0x3e71de3c	0.23619932
170	0x3faa94fa	1.3326714
171	0xbf94a7d3	-1.1613716
172	0x400bab9b	2.182349
173	0xbd4d4277	-0.050112214
174	0xbf5a86e7	-0.85362095
175	0x3fe51969	1.789838
176	0xbee4c2aa	-0.44679767
177	0xbebf90b0	-0.37415075
178	0xbf04f95b	-0.51942986
179	0x405c4792	3.4418683
180	0x3f8f7e20	1.1210365
181	0xc036a875	-2.8540318
182	0x3f8f6d77	1.1205281
183	0xc00a6b7e	-2.1628108
184	0xbf4ddc5f	-0.80414385
185	0xc009b02c	-2.1513777
186	0xc03ff7e3	-2.9995048
187	0x3f3a4dd1	0.7277499
188	0xbdb600c5	-0.088868655
189	0x3e9d43bb	0.30715737
190	0x3d6e7c2b	0.058223885
191	0x3fbb56cc	1.4635863
192	0x4045976d	3.0873673
193	0xc038d32a	-2.8878884
194	0xbea3c59a	-0.31986696
195	0xbf6109cf	-0.8790559
196	0x3e468f99	0.19390716
197	0x3f3f1f5b	0.7465722
198	0xbfa6aa9c	-1.3020816
199	0x40453bff	3.0817869
200	0xbfc4935e	-1.5357473
201	0xbfd55ef6	-1.6669605
202	0xbf81e6ad	-1.0148522
203	0xbf741022	-0.95337117
204	0xbfbd8f73	-1.4809402
205	0x3f9f27fe	1.243408
206	0xbf7783e3	-0.9668562
207	0x40642846	3.564958
208	0x3f451a33	0.769931
209	0xbf25c5ad	-0.64754754
210	0xc02bed80	-2.6863708
211	0x3f8e034f	1.109476
212	0xc003e548	-2.0608692
213	0x4071639d	3.771705
214	0xbf8ac662	-1.0841792
215	0xbf138320	-0.57621956
216	0xbf8c542c	-1.0963187
217	0xbf204e1f	-0.62619203
218	0xbeb7a53a	-0.35868245
219	0xbf12bd51	-0.57320124
220	0x400e3600	2.222046
221	0xbe6f5df1	-0.2337568
222	0xbfb496fa	-1.4108574
223	0xbfa146fb	-1.2599787
224	0x3fa9b7da	1.3259232
225	0x3f61677f	0.8804855
226	0x3ff13b7a	1.8846276
227	0xbe9b6f8f	-0.3035855
228	0xc01a9e34	-2.415906
229	0xbeabb77b	-0.33538422
230	0xbff6d086	-1.9282386
231	0xbf77e35b	-0.9683129
232	0x4028d8e6	2.6382384
233	0xbfd89b9f	-1.6922492
234	0x3f96375a	1.1735642
235	0xbfe9c0f7	-1.8262013
236	0x401972ca	2.3976312
237	0xbd9182b5	-0.071050085
238	0xbff9d1d7	-1.9517163
239	0x3fc3df19	1.5302459
240	0xbec390a7	-0.38196298
241	0xbe3fdd90	-0.18736863
242	0xbf45ae62	-0.7721921
243	0x403d11fd	2.954223
244	0xbf9026b8	-1.1261816
245	0xbf71d8ba	-0.94471323
246	0xbedf8fd9	-0.43664435
247	0xbf1ec78d	-0.6202324
248	0xbf10e422	-0.56598103
249	0xbfc422b9	-1.5323097
250	0xc072bde8	-3.792841
251	0xbf432c98	-0.7623992
252	0x3f8bb092	1.091326
253	0xbf8cf0f2	-1.1011031
254	0xbdedea10	-0.116169095
255	0x3fc9263d	1.5714794

fc3.bias f4 [4]
0	0x3d3b3367	0.045703318
1	0x3f04e6f3	0.519149
2	0x3ebdc0ef	0.3706126
3	0xbeb68104	-0.35645306
